{
    "BUFFER_SIZE": 1000000,
    "BATCH_SIZE": 128,
    "GAMMA": 0.99,
    "TAU": 0.001,
    "LR_ACTOR": 0.0002,
    "LR_CRITIC": 0.0002,
    "WEIGHT_DECAY": 0,
    "ACTOR": [
        "Actor(",
        "  (bn1): BatchNorm1d(33, eps=1e-05, momentum=0.1, affine=True, track_running_stats=True)",
        "  (fc1): Linear(in_features=33, out_features=128, bias=True)",
        "  (bn2): BatchNorm1d(128, eps=1e-05, momentum=0.1, affine=True, track_running_stats=True)",
        "  (fc2): Linear(in_features=128, out_features=128, bias=True)",
        "  (fc3): Linear(in_features=128, out_features=4, bias=True)",
        ")"
    ],
    "CRITIC": [
        "Critic(",
        "  (bn1): BatchNorm1d(33, eps=1e-05, momentum=0.1, affine=True, track_running_stats=True)",
        "  (fcs1): Linear(in_features=33, out_features=128, bias=True)",
        "  (bn2): BatchNorm1d(128, eps=1e-05, momentum=0.1, affine=True, track_running_stats=True)",
        "  (fc2): Linear(in_features=132, out_features=128, bias=True)",
        "  (fc3): Linear(in_features=128, out_features=1, bias=True)",
        ")"
    ]
}